…
------------------------------
test_size            := 0.2
nb_epoch             := 28
save_best_only       := True
samples_per_epoch    := 24000
learning_rate        := 0.0001
keep_prob            := 0.5
batch_size           := 1024
data_dir             := data
------------------------------
____________________________________________________________________________________________________
Layer (type)                     Output Shape          Param #     Connected to
====================================================================================================
lambda_1 (Lambda)                (None, 66, 200, 3)    0           lambda_input_1[0][0]
____________________________________________________________________________________________________
convolution2d_1 (Convolution2D)  (None, 31, 98, 24)    1824        lambda_1[0][0]
____________________________________________________________________________________________________
convolution2d_2 (Convolution2D)  (None, 14, 47, 36)    21636       convolution2d_1[0][0]
____________________________________________________________________________________________________
convolution2d_3 (Convolution2D)  (None, 5, 22, 48)     43248       convolution2d_2[0][0]
____________________________________________________________________________________________________\
convolution2d_4 (Convolution2D)  (None, 3, 20, 64)     27712       convolution2d_3[0][0]\
____________________________________________________________________________________________________\
convolution2d_5 (Convolution2D)  (None, 1, 18, 64)     36928       convolution2d_4[0][0]\
____________________________________________________________________________________________________\
dropout_1 (Dropout)              (None, 1, 18, 64)     0           convolution2d_5[0][0]\
____________________________________________________________________________________________________\
flatten_1 (Flatten)              (None, 1152)          0           dropout_1[0][0]\
____________________________________________________________________________________________________\
dense_1 (Dense)                  (None, 100)           115300      flatten_1[0][0]\
____________________________________________________________________________________________________\
dense_2 (Dense)                  (None, 50)            5050        dense_1[0][0]\
____________________________________________________________________________________________________\
dense_3 (Dense)                  (None, 10)            510         dense_2[0][0]\
____________________________________________________________________________________________________\
dense_4 (Dense)                  (None, 1)             11          dense_3[0][0]\
====================================================================================================\
Total params: 252,219\
Trainable params: 252,219\
Non-trainable params: 0\
____________________________________________________________________________________________________\
Epoch 1/28\
/home/carnd/BC-P3/utils.py:100: VisibleDeprecationWarning: boolean index did not match indexed array along dimension 0; dimension is 160 but corresponding boolean dimension is 66\
…
